src/reinforcement_learning/dqn.pth (torch, 3231 bytes, 4 tensors)

0.weight f4 [64, 4]
00000000: c84d 803d 134a bf3e 436d 2f3f e2a7 993e
00000010: 0706 e3be d791 6dbe 055e c3be 7629 24bd
00000020: 5be1 333f 5774 953f 39b3 ae3f 3893 513f
00000030: e114 093f cc80 753f 1d94 663f 1c88 383f
00000040: 802f 1a3f 7d33 1b3f d3d0 363f 5af7 043f
00000050: b76e b93d 1b51 fb3e f93f 733f 7304 d33e
00000060: 0291 053c fb42 44be ccf9 3a3d ebab 1cbe
00000070: 4121 8dbd 825d 81be 53fc 283f b634 4f3e
00000080: 1bbf c8be 5b85 f9be 6888 84bf 2dd9 adbe
00000090: a334 623e 87a7 c7be 2fcf a1bf bcb9 91be
000000a0: a8c2 1dbe 81de 503c 89cb c1bd be1f 9abe
000000b0: c25b 513e a7c0 793e b32f fabc daa6 453e
000000c0: 9abb 1b3e f5c0 653f 500d a73f fed5 3f3f
000000d0: f483 3e3e e7b6 493d 2ca9 dbbd e423 293c
000000e0: d03d 3d3f 87b9 dc3f e693 f43f f2f6 833f
000000f0: 3fcd b73e 8777 523f c0b9 6d3f b8a9 373f
00000100: 6428 933e 54d8 a43e 7c92 613e 7a9c 823e
00000110: 5df1 01bf 9226 5dbf c17a debf 82a4 34bf
00000120: 98ce 1b3e 274c 803f 8b8d 6a3f 8019 5c3f
00000130: 6b9a 943e 519c 843f bd08 a53f 078a 523f
00000140: 46df 8abe 5072 a1bd 32ae cabe 06e3 f63d
00000150: a98b fa3c 4aea 1dbf 54f6 87bf 9cfc 04bf
00000160: a02f 363e 78d9 033f 5642 913f ea11 d13e
00000170: bd09 b1be e01c a6bf 3142 7dbf fa92 7bbf
00000180: 89a8 f7bd 3be8 f5bd 3e4d ce3d e1ea 80bd
00000190: 5240 3f3e 2d2d 8a3d 9e8e 333f 65c2 763d
000001a0: baa2 babe 2263 f73e 16e5 833f e372 ea3e
000001b0: 27bd ac3e c3b6 9a3e 5f79 ffbb b22b a43e
000001c0: cc2d 5dbe 14cc d3be 10aa 91bf d872 aebe
000001d0: 1de7 7dbe aeff 86bf 4383 debf 003e 58bf
000001e0: 55c4 bc3d eb3c e93e 1df0 803f 59ac c63e
000001f0: 06ba 853e ded1 08bf bf14 76bf 8b5c efbe
00000200: baed acbe 41a5 35bf a39c b0bf 72fa 10bf
00000210: 0cc9 04bd 9bc6 713f c9f2 b03f 23d2 463f
00000220: 4351 e53e e05c 783f 3a7a b23f ce9f 393f
00000230: 4c22 943e 916b 95be 785f 05be 999a 5cbe
00000240: 1582 353e 7c37 b53e ad83 203f 048f 8f3e
00000250: 7468 b73e 2b6a 2f3f 9248 fe3e e8e7 083f
00000260: 38c5 983d d432 633e 6eab 9d3f 632f ef3e
00000270: f1d0 ff3d 3714 a5be 36c9 8b3e d9dd 8bbe
00000280: e370 733e cf7b f2be ffbf 81be 17d9 8ebe
00000290: c50a a53e b439 373c 858b 2b3c 8e03 76ba
000002a0: c34b f43d cc22 17be 8d61 fc3d bd6c 7c3e
000002b0: 9e68 9fbd 9a47 27bf d2b3 99bf 148c 0ebf
000002c0: e786 0abe 7ed0 62be 16df 3ebd 5977 41be
000002d0: b8a9 5fbc 6c27 8f3e 1e1f 1b3f 7676 693e
000002e0: 85bf d6bd efeb 273f 4cec ce3e 318c 173f
000002f0: 0cc3 013f be02 2f3f 23b9 ae3f af1d 183f
00000300: d31f 55bd a3c8 7b3e 5264 aebb f1ae 5e3e
00000310: da6d ba3d 6458 b7be bbc9 1cbf 51ba 60be
00000320: d035 cabd bf53 63be 3824 f2be b3bc 9abe
00000330: 5c3d 70be 9c70 a5be 7dee b8be f0ca 83be
00000340: 8a68 0d3f 1108 42be fcff d0bc 320a e1be
00000350: 2a94 f43e 85f7 d5bc fe17 56bf ebab 13be
00000360: 2dd8 b93d 3ff5 56bf 03d6 38bf ca3a 2fbf
00000370: 8001 b73e d45c 693f 61d6 db3f e1cb 3f3f
00000380: a5fd f4bd 97f6 15bf 0ca5 3bbf c58d febe
00000390: 2247 00be bc22 9dbe 7ec9 eb3e aa4e 713f
000003a0: 3267 c2bd d428 163f 1e7f 713f d082 f73e
000003b0: 4c10 87be f29d 5d3e a419 203f 9d61 5d3e
000003c0: 76f7 bd3c fe96 50bd 74c7 b6be 41ff 15bd
000003d0: f8de 6ebe 3b28 e03e dc0f fe3e a44b 5fbe
000003e0: 9778 2dbf d3c7 80bf 8a65 e33c 22f9 d63e
000003f0: 4757 33be e06d 593f aede a03f fd66 363f
0.062648356 0.37361202 0.68526095 0.30010897 -0.44340536 -0.23200165 -0.3815767 -0.040078603
0.7026574 1.1676129 1.3648444 0.81865263 0.53547484 0.95899653 0.9006975 0.72082686
0.6022873 0.6062544 0.7141239 0.5193993 0.0905432 0.49085316 0.9501949 0.41214332
0.008152248 -0.19166176 0.04564838 -0.15299957 -0.06891108 -0.25266653 0.66010016 0.20234951
-0.39208302 -0.48734555 -1.0354128 -0.33954754 0.22090392 -0.38995 -1.2641352 -0.28462017
-0.15406287 0.012748362 -0.094626494 -0.30102342 0.20445159 0.24389897 -0.030540323 0.1930193
0.15208283 0.89747554 1.3050938 0.749359 0.18605024 0.049246695 -0.10725626 0.010323498
0.73922443 1.7244118 1.9107635 1.0309737 0.35898778 0.82213634 0.92861557 0.71743345
0.28741753 0.32196295 0.22028536 0.25510007 -0.50758916 -0.8638698 -1.7381212 -0.7056352
0.15215528 1.002324 0.9162223 0.8597641 0.29024062 1.0360204 1.2893292 0.82241863
-0.2712347 -0.078831315 -0.39586025 0.1205502 0.030584173 -0.6168562 -1.0622048 -0.5194795
0.17791605 0.51503706 1.1348369 0.4083398 -0.34577742 -1.2977562 -0.98929125 -0.98271143
-0.120926924 -0.12007185 0.100733265 -0.062947996 0.1867688 0.06746898 0.7013949 0.060243983
-0.36452276 0.4831782 1.0304286 0.45790777 0.33738062 0.3021756 -0.007796451 0.32064587
-0.21599501 -0.41366637 -1.1380024 -0.34071994 -0.24795194 -1.0546777 -1.7383808 -0.84469604
0.09217135 0.4555429 1.0073277 0.38803366 0.26118487 -0.5344523 -0.96125406 -0.46750292
-0.3377512 -0.7095528 -1.3797802 -0.5663215 -0.032418296 0.9444367 1.3824092 0.77664393
0.4478856 0.97016716 1.394355 0.7250947 0.28932416 -0.2918363 -0.130247 -0.2154335
0.17725404 0.35393894 0.6270092 0.280388 0.3582188 0.68521374 0.49664742 0.5347886
0.074594915 0.22187358 1.2317941 0.4671584 0.12491024 -0.32241985 0.2730195 -0.27317694
0.23773532 -0.47360083 -0.25341794 -0.279 0.3223478 0.011183191 0.010470276 -0.0009384685
0.11928513 -0.14759368 0.12323294 0.24650855 -0.07783626 -0.6534363 -1.2008002 -0.5568249
-0.13528024 -0.22149846 -0.04659947 -0.18893184 -0.013651304 0.27959764 0.60594356 0.22799096
-0.10485748 0.6559438 0.40414655 0.5919829 0.5068824 0.6836356 1.3650249 0.59420294
-0.052032303 0.24588256 -0.0053220177 0.21746422 0.09102984 -0.35809624 -0.61245316 -0.21946074
-0.09873545 -0.22199915 -0.47293258 -0.3022209 -0.23460907 -0.32312477 -0.36119452 -0.25740767
0.5523764 -0.1894839 -0.025512688 -0.4395309 0.4776929 -0.026119003 -0.8363036 -0.1442105
0.090744354 -0.83967966 -0.72201556 -0.6844908 0.35743332 0.9115727 1.7174798 0.7492047
-0.11962441 -0.5857939 -0.73298717 -0.49717537 -0.12527135 -0.30690563 0.46052164 0.94260657
-0.09492339 0.5865605 0.9433459 0.4834199 -0.2637962 0.21642283 0.62539124 0.21619268
0.023189288 -0.050925247 -0.35699046 -0.036620382 -0.23327243 0.43780693 0.49621475 -0.21806198
-0.6776213 -1.0060982 0.027758379 0.41986948 -0.17513762 0.8493328 1.2567956 0.712509

0.bias f4 [64]
00000000: 9caa 93bf 84c8 c8be df43 f43e 8024 8abf
00000010: 116a 193f f55d 783f c9e2 8c3f 0224 77bd
00000020: c07e 6c3f 585b 443f 2e10 1dbd 4f29 52bf
00000030: c7df 263f c56f 5c3f befb ce3e 64b3 4ebf
00000040: a27d 59bf f8de 823f 61d9 4ebf 3538 81bf
00000050: e5a0 4f3e 9c7d 84bf 0d1a 73bf 61e5 32bf
00000060: b919 043f 21e3 8cbf f464 583f 9a9c 69bd
00000070: 6414 503f 8245 813f 6236 8ebf 577d 89bf
00000080: 525f 863f 745e 54bf 37d5 143f b62b 20bf
00000090: 733e 64bf c524 803f 6972 b53e 1603 83bf
000000a0: 35fd 613e afaa 71bf 7b53 1ebe ae54 87bf
000000b0: 71dd 643f 386e 803f 145b 3abf 3285 303f
000000c0: 8273 593f f46b 693e 8d3e 053f 760d 5b3f
000000d0: c5c5 84bc 9858 54be 6c4c 7a3f 6c35 4f3f
000000e0: 836b 72bf 26ea 7dbe bc1c 803f a901 673f
000000f0: ce75 33bf d3ab a13e 1a36 04bb 2083 6cbf
-1.1536441 -0.3921548 0.47708032 -1.0792389 0.5992747 0.9701837 1.1006709 -0.060337074
0.92380905 0.7670188 -0.03834551 -0.8209428 0.6518521 0.86108047 0.4042644 -0.8074248
-0.84957325 1.0224295 -0.80800444 -1.0095278 0.2027622 -1.0350833 -0.94961625 -0.69881254
0.5160175 -1.1006814 0.8452904 -0.057034113 0.81281114 1.0099337 -1.1110346 -1.0741376
1.049784 -0.82956624 0.5813784 -0.625667 -0.8915779 1.0011221 0.3543885 -1.0235317
0.22069247 -0.9440107 -0.15461533 -1.0572717 0.8940039 1.0033636 -0.72795224 0.6895324
0.84941876 0.22795087 0.5204857 0.85567415 -0.016207585 -0.20736921 0.9777286 0.8094089
-0.946953 -0.24796352 1.0008769 0.9023691 -0.7010163 0.31576404 -0.0020173849 -0.9238758

2.weight f4 [2, 64]
00000000: 9f9f fdbe d3e1 eebd 83ea 2a3f 7347 14bf
00000010: 2922 153f 8477 ce3e 806f 033f 8edd 013e
00000020: b2bb f23e acab 4c3f d016 d8bd 4541 33bf
00000030: 998d 143f da5f ba3e 2d43 313f c9ec 59bf
00000040: 6d88 05bf 12c6 273f 1e74 46bf 60e8 36bf
00000050: 83f5 863e 7064 04bf 31a2 06bf 4d5d d0be
00000060: 338e bd3e 2c18 0fbf b376 033f a316 e0be
00000070: a80b 323f 315d 293f 42f7 07bf 25a3 0fbf
00000080: ddb5 133f a581 10bf d4b4 c03e 8339 d4be
00000090: 3cca 1fbf a9f7 e13e fe74 683e 7254 13bf
000000a0: d363 803e d240 efbe 20b9 bebd ff88 e7be
000000b0: dcfa 183f d245 063f 7e06 1bbf 8f12 103f
000000c0: 140c 303f 5ae7 cf3e efab 9e3e c3ba 213f
000000d0: 528c 0ebe 46b7 babc b241 143f e16f c03e
000000e0: 88af 0ebf 5e40 a83e d970 b93e e22a 2c3f
000000f0: 9daf e0be 0d9d be3d 9fb9 49be 4cd5 29bf
00000100: 3c74 0abf 6fa2 5abd 4441 263f 178b 22bf
00000110: 87d6 ea3e d492 fc3e 3024 283f 835b aa3d
00000120: 3bae f93e 3aa4 db3e 2bdc 24be 8f51 28bf
00000130: dc4a fe3e 3281 1a3f 0fc8 1d3f 06ae 04bf
00000140: 434b 10bf f2fa 033f 893a 15bf bff6 2fbf
00000150: 73bf 223e c990 1bbf e15b 14bf 3116 0dbf
00000160: 9786 043f ab88 10bf 09d6 1a3f 7d9c 2f3e
00000170: 13ae 293f db25 223f f913 1cbf e72c 15bf
00000180: 690b 223f b597 0dbf 7b3b 023f 1bd2 23be
00000190: b72e 1fbf b005 083f d837 803e 1e3b 07bf
000001a0: a17d 813e 05e0 24bf da3c 0a3e 3df1 f8be
000001b0: f4b2 1a3f 9849 223f 00cf 0cbf a643 ff3e
000001c0: 69d2 253f 7bb5 093c 8cd6 973e 4a8f 2d3f
000001d0: 66db 5fbe aa45 b4be 569b 1e3f 2aaa 093f
000001e0: ae46 15bf 3091 3a3e 1d71 f93e de1a 133f
000001f0: 7c58 a7be 8e97 1dbc 9a66 a6be 0261 21bf
-0.49535844 -0.11664166 0.66764086 -0.5792152 0.5825525 0.40325558 0.5134201 0.12682173
0.47408825 0.7994945 -0.10551226 -0.7002147 0.5802856 0.36401254 0.6924313 -0.8512693
-0.52161294 0.65536606 -0.7752093 -0.71448326 0.26359186 -0.51715755 -0.52591234 -0.40696183
0.37022552 -0.5589626 0.51352996 -0.4376727 0.69549036 0.66157824 -0.5311166 -0.56108314
0.57699376 -0.5644782 0.3763796 -0.41450128 -0.6241796 0.44134262 0.22700879 -0.5755073
0.2507616 -0.4672914 -0.093126535 -0.45221707 0.5975778 0.5245029 -0.6055678 0.5627832
0.6876843 0.40606195 0.3099055 0.631756 -0.13920715 -0.02279247 0.57912743 0.37585357
-0.5573659 0.32861608 0.36218908 0.67252934 -0.43883982 0.09307299 -0.19699715 -0.6634109
-0.5408361 -0.053377565 0.6494334 -0.63493484 0.45866796 0.4933077 0.6568022 0.08318236
0.4876574 0.42898732 -0.16099612 -0.6574945 0.49666488 0.60353386 0.6163339 -0.5182804
-0.5636484 0.5155479 -0.5829244 -0.6873588 0.15893345 -0.607678 -0.57952696 -0.55111986
0.5176787 -0.5645854 0.6048284 0.1714954 0.6628124 0.6333901 -0.60967976 -0.5827164
0.6329866 -0.5530961 0.5087201 -0.15998118 -0.62180656 0.5313368 0.25042605 -0.5282458
0.2529116 -0.64404327 0.13499776 -0.4862155 0.6042931 0.63393545 -0.55003357 0.498563
0.64774185 0.008405085 0.29655874 0.67796767 -0.21861038 -0.352094 0.61955774 0.53775275
-0.58310974 0.18219447 0.4871911 0.5746287 -0.32684696 -0.009618653 -0.32500154 -0.6303865

2.bias f4 [2]
00000000: 741c 073f 3cf4 da3e
0.5277779 0.4276446
